module {
  tt.func public @triton_mm(%arg0: !tt.ptr<f32> {tt.divisibility = 16 : i32} loc("/home/admin/zy429782/fx_experiments/torch_aot_tool/dynamicLib_7622_gpu_torch260/jv/cjvvgqhn7hbdaeea5kusbszneupga7242zv7rrhsej4p4xgi72fu.py":18:0), %arg1: !tt.ptr<f32> {tt.divisibility = 16 : i32} loc("/home/admin/zy429782/fx_experiments/torch_aot_tool/dynamicLib_7622_gpu_torch260/jv/cjvvgqhn7hbdaeea5kusbszneupga7242zv7rrhsej4p4xgi72fu.py":18:0), %arg2: !tt.ptr<f32> {tt.divisibility = 16 : i32} loc("/home/admin/zy429782/fx_experiments/torch_aot_tool/dynamicLib_7622_gpu_torch260/jv/cjvvgqhn7hbdaeea5kusbszneupga7242zv7rrhsej4p4xgi72fu.py":18:0), %arg3: i32 loc("/home/admin/zy429782/fx_experiments/torch_aot_tool/dynamicLib_7622_gpu_torch260/jv/cjvvgqhn7hbdaeea5kusbszneupga7242zv7rrhsej4p4xgi72fu.py":18:0)) attributes {noinline = false} {
    %cst = arith.constant dense<32> : tensor<32x128xi32>
    %cst_0 = arith.constant dense<32> : tensor<64x32xi32>
    %c32_i32 = arith.constant 32 : i32
    %c512_i32 = arith.constant 512 : i32
    %c16_i32 = arith.constant 16 : i32
    %c63_i32 = arith.constant 63 : i32
    %cst_1 = arith.constant dense<256> : tensor<64x1xi32>
    %cst_2 = arith.constant dense<256> : tensor<1x128xi32>
    %cst_3 = arith.constant dense<0.000000e+00> : tensor<64x128xf32>
    %cst_4 = arith.constant dense<512> : tensor<1x128xi32>
    %cst_5 = arith.constant dense<512> : tensor<64x1xi32>
    %cst_6 = arith.constant dense<256> : tensor<128xi32>
    %c8_i32 = arith.constant 8 : i32
    %c128_i32 = arith.constant 128 : i32
    %c64_i32 = arith.constant 64 : i32
    %c0_i32 = arith.constant 0 : i32
    %c256_i32 = arith.constant 256 : i32
    %0 = arith.muli %arg3, %c256_i32 : i32
    %1 = arith.cmpi eq, %0, %c0_i32 : i32
    cf.cond_br %1, ^bb1, ^bb2
  ^bb1:  // pred: ^bb0
    tt.return
  ^bb2:  // pred: ^bb0
    %2 = tt.get_program_id x : i32
    %3 = arith.addi %arg3, %c63_i32 : i32
    %4 = arith.divsi %3, %c64_i32 : i32
    %5 = arith.divsi %2, %c16_i32 : i32
    %6 = arith.muli %5, %c8_i32 : i32
    %7 = arith.subi %4, %6 : i32
    %8 = arith.minsi %7, %c8_i32 : i32
    %9 = arith.remsi %2, %8 : i32
    %10 = arith.addi %6, %9 : i32
    %11 = arith.remsi %2, %c16_i32 : i32
    %12 = arith.divsi %11, %8 : i32
    %13 = arith.muli %10, %c64_i32 : i32
    %14 = tt.make_range {end = 64 : i32, start = 0 : i32} : tensor<64xi32>
    %15 = tt.splat %13 : i32 -> tensor<64xi32>
    %16 = arith.addi %15, %14 : tensor<64xi32>
    %17 = arith.muli %12, %c128_i32 : i32
    %18 = tt.make_range {end = 128 : i32, start = 0 : i32} : tensor<128xi32>
    %19 = tt.splat %17 : i32 -> tensor<128xi32>
    %20 = arith.addi %19, %18 : tensor<128xi32>
    %21 = tt.splat %arg3 : i32 -> tensor<64xi32>
    %22 = arith.remsi %16, %21 {tt.contiguity = dense<64> : tensor<1xi32>, tt.divisibility = dense<64> : tensor<1xi32>} : tensor<64xi32>
    %23 = arith.remsi %20, %cst_6 {tt.contiguity = dense<128> : tensor<1xi32>, tt.divisibility = dense<128> : tensor<1xi32>} : tensor<128xi32>
    %24 = tt.make_range {end = 32 : i32, start = 0 : i32} : tensor<32xi32>
    %25 = tt.expand_dims %22 {axis = 1 : i32} : tensor<64xi32> -> tensor<64x1xi32>
    %26 = arith.muli %25, %cst_5 : tensor<64x1xi32>
    %27 = tt.expand_dims %24 {axis = 0 : i32} : tensor<32xi32> -> tensor<1x32xi32>
    %28 = tt.broadcast %26 : tensor<64x1xi32> -> tensor<64x32xi32>
    %29 = tt.broadcast %27 : tensor<1x32xi32> -> tensor<64x32xi32>
    %30 = arith.addi %28, %29 : tensor<64x32xi32>
    %31 = tt.splat %arg0 : !tt.ptr<f32> -> tensor<64x32x!tt.ptr<f32>>
    %32 = tt.addptr %31, %30 : tensor<64x32x!tt.ptr<f32>>, tensor<64x32xi32>
    %33 = tt.expand_dims %24 {axis = 1 : i32} : tensor<32xi32> -> tensor<32x1xi32>
    %34 = tt.expand_dims %23 {axis = 0 : i32} : tensor<128xi32> -> tensor<1x128xi32>
    %35 = arith.muli %34, %cst_4 : tensor<1x128xi32>
    %36 = tt.broadcast %33 : tensor<32x1xi32> -> tensor<32x128xi32>
    %37 = tt.broadcast %35 : tensor<1x128xi32> -> tensor<32x128xi32>
    %38 = arith.addi %36, %37 : tensor<32x128xi32>
    %39 = tt.splat %arg1 : !tt.ptr<f32> -> tensor<32x128x!tt.ptr<f32>>
    %40 = tt.addptr %39, %38 : tensor<32x128x!tt.ptr<f32>>, tensor<32x128xi32>
    %41:3 = scf.for %arg4 = %c0_i32 to %c512_i32 step %c32_i32 iter_args(%arg5 = %cst_3, %arg6 = %32, %arg7 = %40) -> (tensor<64x128xf32>, tensor<64x32x!tt.ptr<f32>>, tensor<32x128x!tt.ptr<f32>>)  : i32 {
      %56 = tt.load %arg6 : tensor<64x32x!tt.ptr<f32>>
      %57 = tt.load %arg7 : tensor<32x128x!tt.ptr<f32>>
      %58 = tt.dot %56, %57, %arg5 : tensor<64x32xf32> * tensor<32x128xf32> -> tensor<64x128xf32>
      %59 = tt.addptr %arg6, %cst_0 : tensor<64x32x!tt.ptr<f32>>, tensor<64x32xi32>
      %60 = tt.addptr %arg7, %cst : tensor<32x128x!tt.ptr<f32>>, tensor<32x128xi32>
      scf.yield %58, %59, %60 : tensor<64x128xf32>, tensor<64x32x!tt.ptr<f32>>, tensor<32x128x!tt.ptr<f32>>
    }
    %42 = tt.expand_dims %16 {axis = 1 : i32} : tensor<64xi32> -> tensor<64x1xi32>
    %43 = tt.expand_dims %20 {axis = 0 : i32} : tensor<128xi32> -> tensor<1x128xi32>
    %44 = tt.splat %arg3 : i32 -> tensor<64x1xi32>
    %45 = arith.cmpi slt, %42, %44 : tensor<64x1xi32>
    %46 = arith.cmpi slt, %43, %cst_2 : tensor<1x128xi32>
    %47 = tt.broadcast %45 : tensor<64x1xi1> -> tensor<64x128xi1>
    %48 = tt.broadcast %46 : tensor<1x128xi1> -> tensor<64x128xi1>
    %49 = arith.andi %47, %48 : tensor<64x128xi1>
    %50 = arith.muli %42, %cst_1 : tensor<64x1xi32>
    %51 = tt.broadcast %43 : tensor<1x128xi32> -> tensor<64x128xi32>
    %52 = tt.broadcast %50 : tensor<64x1xi32> -> tensor<64x128xi32>
    %53 = arith.addi %51, %52 : tensor<64x128xi32>
    %54 = tt.splat %arg2 : !tt.ptr<f32> -> tensor<64x128x!tt.ptr<f32>>
    %55 = tt.addptr %54, %53 : tensor<64x128x!tt.ptr<f32>>, tensor<64x128xi32>
    tt.store %55, %41#0, %49 : tensor<64x128x!tt.ptr<f32>>
    tt.return
  }
}
